weights.pth (torch, 562880 bytes, 8 tensors)

fc1.weight f4 [256, 16]
00000000: 5252 65be 3473 7f3e b899 11bd b8ca fe3d
00000010: f4ac e83d 9a4f 0abe 84f7 4b3e 98a0 21bd
00000020: 4886 8b3d 3884 debd 0078 e6bd 3636 6c3e
00000030: 6c24 f0bd c6ee 3b3e bc50 f43d 2670 303e
00000040: f0ee 573e 80fa 7d3d e01c ca3d 0ad6 1dbe
00000050: 0864 8fbd 506c fc3c c033 f03c f099 6bbe
00000060: 8440 b13d 5826 f53d d202 763e 6cf6 a1bd
00000070: 96c2 25be 70ec 763e 442c b13d 1cf0 ea3d
00000080: ec17 563e 503e f13d 2e88 5a3e 62a5 70be
00000090: 4cae d2bd 283a d7bd 9e3d 2f3e 389b 47be
000000a0: 98f0 5f3d 6843 aa3d 7ada 373e 0866 303d
000000b0: 60f9 b2bc a473 dcbd c01c 15bc c003 b03d
000000c0: d84b 51bd 2040 a23d c074 83bc deff 333e
000000d0: 58ad d7bd 028f 2f3e 008f 51be c04d 9f3b
000000e0: 406e 3ebe dc65 c9bd bc2c 3f3e 1c19 5c3e
000000f0: 305d 703e 04a6 573e 623a 2f3e f0da 74bd
00000100: 0ceb fdbd ccb4 3dbe 9255 5bbe 7022 ccbd
00000110: f8d4 db3d 8a41 1dbe 0012 3ebd 8e3d 0abe
00000120: 1c79 d33d c24f 373e 7477 c3bd 9861 aabd
00000130: 78d9 f03d 38e7 2ebe c006 b3bb fe60 4f3e
00000140: 20bf a63d ec69 6c3e 2895 99bd 504a 65bd
00000150: d2f4 64be ea66 7b3e 0276 45be da20 59be
00000160: 801d 7fbd 008f 79bd 7c45 cabd 20a6 c93d
00000170: ee75 793e 4ab1 1a3e 80c3 46bd b008 8ebd
00000180: f2fb 77be 8094 ffbb 6444 e93d 9668 2fbe
00000190: 0692 79be e87f 18bd d4c0 cebd b8f3 6ebe
000001a0: eec5 763e 0058 713a a092 be3d ccfe e8bd
000001b0: b2b6 6cbe 301b a2bc 1838 2e3e 44b5 01be
000001c0: a807 e9bd 00a9 78bd d80c 163d 643f 14be
000001d0: 8867 513d d8db 00bd a48a 8b3d c2ff 633e
000001e0: b438 033e 5020 a0bc 60cd 55bc e885 463e
000001f0: 78b1 3d3e ccf0 dfbd 5e39 143e 9890 71be
00000200: 5ac7 363e 7a19 0fbe e810 51bd 067c 47be
00000210: ea55 473e 6016 bdbc 0e7f 2fbe b40b 7e3e
00000220: f0b0 1c3e 7877 613d 787e 89bd 32c9 13be
00000230: ec3f 75be 0c62 1ebe 6cf2 5abe d0b7 6b3d
00000240: 703e ec3c 22f7 59be acaf 75be 188d 5d3e
00000250: b0ef 2c3e 806d c63b f015 28be 1a66 36be
00000260: 109c 1d3e a693 3bbe cce2 093e f8f3 173e
00000270: c84b 0a3d c076 2b3c 86b8 293e 2829 ce3d
00000280: 6004 d73d a8e8 e83d a01a 3abd 7cee 0ebe
00000290: de5d 263e 30e3 d83d d096 bf3d 581d 983d
000002a0: fc15 9cbd 44f3 59be 20ea 4cbe 089e 483e
000002b0: 2011 f2bd 40cb 893c 60d2 1d3d 6628 6cbe
000002c0: 2815 4e3e a81d cf3d d423 c3bd f22a 4e3e
000002d0: 3607 7bbe 405f 293c b278 28be d899 5ebe
000002e0: 484f 313d 10d8 103e 6657 0c3e e600 56be
000002f0: 52e9 103e c04c 4c3d f8a3 0fbe 8c8d cf3d
00000300: 5659 273e 7036 a73d de97 39be 3887 ba3d
00000310: 609e f53c c26c 613e c431 b1bd 3c98 d2bd
00000320: e64e 3dbe 9836 313d 40ae 3ebc 8004 84bc
00000330: 186a 4a3d 2605 64be ac4c 823d 565e 59be
00000340: 54b7 0b3e 9c9c 7b3e b634 2dbe a0d4 c03c
00000350: b881 0cbe 22a9 383e c27f 5abe 1630 043e
00000360: 64b0 7e3e 4a18 3ebe 8e32 79be c072 203c
00000370: b007 e9bd 18a1 a4bd 8029 7e3d 30ec 47be
00000380: 48ac 0a3d e22e 1ebe 0e84 5b3e 6467 f4bd
00000390: 6802 d0bd e0c0 c0bc 4806 da3d 9c7c f63d
000003a0: 8870 ccbd 52ca 19be 4c20 f53d f085 403e
000003b0: 88a3 47bd 1216 153e d032 fe3c f4eb 343e
000003c0: 30c9 a8bd d0e2 4abe 8440 7dbe 22e4 61be
000003d0: 4e0f 353e c0bb 2e3d 4062 58bd 0462 893d
000003e0: a006 e8bd 38da 35bd 0e09 113e 14da 5dbe
000003f0: 707b 49be 001a 3abb 30c2 17bd 00cb 51bd
-0.22394684 0.2494629 -0.03554699 0.12441009 0.11361113 -0.13506928 0.19918638 -0.039459795
0.068127215 -0.108650625 -0.11253357 0.23067555 -0.11725697 0.18352804 0.11929461 0.17230281
0.21087241 0.062006474 0.09868789 -0.1541368 -0.07001501 0.030813366 0.029321551 -0.23007941
0.086548835 0.11970204 0.24024513 -0.07908329 -0.1618751 0.24113631 0.08651021 0.114715785
0.20907563 0.11779463 0.21341011 -0.23500589 -0.10287151 -0.10509139 0.17113349 -0.19492805
0.054672807 0.08313638 0.17954436 0.043066055 -0.021847427 -0.10764244 -0.009101093 0.08594465
-0.05109772 0.07922387 -0.016046882 0.17578074 -0.105311096 0.17144397 -0.20464706 0.0048615634
-0.18596745 -0.09833881 0.18669409 0.21493953 0.23473048 0.21059424 0.17112115 -0.059779108
-0.12398347 -0.18526 -0.21419361 -0.09967506 0.1073398 -0.15357032 -0.046403885 -0.13500044
0.10325834 0.17901519 -0.09544268 -0.08319396 0.11760229 -0.1708039 -0.005463451 0.20251843
0.08141923 0.23087281 -0.074991524 -0.055979073 -0.22359017 0.24550977 -0.19283298 -0.21203938
-0.062283993 -0.06092739 -0.09876534 0.09846139 0.24361393 0.15106693 -0.048526287 -0.06935251
-0.24217203 -0.007799685 0.113899976 -0.1712974 -0.2437211 -0.037231356 -0.10095373 -0.23335159
0.24098942 0.00092065334 0.0930531 -0.11376724 -0.23116568 -0.019788355 0.17013586 -0.12666804
-0.113784134 -0.060708046 0.036633343 -0.14477307 0.051124126 -0.03145966 0.06813553 0.22265533
0.128146 -0.019546658 -0.0130494535 0.19387019 0.1852473 -0.109346 0.14475009 -0.23590314
0.17849484 -0.13974562 -0.051041514 -0.19480905 0.19466367 -0.023081958 -0.17138311 0.24809152
0.15301871 0.055045575 -0.06713575 -0.14432219 -0.23950166 -0.1546709 -0.21381539 0.057548344
0.028838366 -0.2128568 -0.23992795 0.21635854 0.16888309 0.006055534 -0.16414618 -0.17812386
0.15391564 -0.18318042 0.13465422 0.1483916 0.033763677 0.010465324 0.16574296 0.10066444
0.10498881 0.11372501 -0.045435548 -0.13958162 0.16246745 0.105902076 0.09354937 0.07427472
-0.07621381 -0.21284205 -0.20011187 0.19591534 -0.118196726 0.01682055 0.038530707 -0.23062286
0.20125258 0.10113078 -0.09528318 0.2013357 -0.2451447 0.010337651 -0.16452292 -0.21738374
0.0432885 0.14144921 0.13705215 -0.2089878 0.14151505 0.049877882 -0.14027393 0.1013442
0.16342673 0.0816468 -0.18124339 0.09107822 0.029982746 0.22014144 -0.0865207 -0.10282943
-0.18487129 0.043264955 -0.011638224 -0.016115427 0.049417585 -0.22267589 0.0636228 -0.21227393
0.13644153 0.2457146 -0.16914639 0.023538888 -0.13721359 0.18033269 -0.21337798 0.12908968
0.24871975 -0.18563953 -0.24335691 0.0097929835 -0.113784194 -0.08038539 0.062051296 -0.19523692
0.033855706 -0.15447572 0.21437094 -0.11933783 -0.10156709 -0.02352947 0.10645729 0.12035486
-0.09982401 -0.15018585 0.11969051 0.18801093 -0.04873994 0.145592 0.031030089 0.17668134
-0.082414985 -0.19813085 -0.24731642 -0.22059682 0.1768162 0.04265952 -0.052828074 0.06708148
-0.113293886 -0.044397563 0.1416361 -0.21665221 -0.19675994 -0.0028396845 -0.037050426 -0.051218987

fc1.bias f4 [256]
00000000: 1a8f 1a3e da82 143e d00a 983d 30b1 f03c
00000010: 4c39 debd d807 7fbd e075 8dbd 888c 6cbd
00000020: 64a6 253e a080 62bd d01f 623d a8f5 6dbe
00000030: 544c 47be 004e cd3b 70be 003d 4c8f 81bd
00000040: 20df 3dbd d282 423e da78 203e ea50 12be
00000050: e072 75bc bced 25be 484f 553e 7cb7 fbbd
00000060: 8418 97bd 0ec9 3dbe d8b1 26be eea0 513e
00000070: 6085 b1bd b82b 06be 60a6 4cbd 683c 093d
00000080: 602b 4fbc c079 db3c 6024 363c 5828 9b3d
00000090: a4f7 06be 123f 1abe 6851 74bd 46e9 0abe
000000a0: 2826 7b3d 68a7 fc3d 3868 553e 10ab d13c
000000b0: 205d c33d 4442 1c3e 306d 52be 14f5 f7bd
000000c0: 2419 9fbd 982e 953d 7210 1d3e 60d6 39bd
000000d0: 50ae 95bc d03f a93c 7023 67bd ac6f c13d
000000e0: daec 0cbe 4803 7b3e 3e0f 3f3e 8e2f 07be
000000f0: aede 38be 5e5f 2cbe 4445 f4bd 0075 08bb
00000100: d086 d93d 3aeb 72be 66ab 55be c0b8 633e
00000110: 5cc2 3ebe a849 4cbe e6c3 673e 9084 3cbd
00000120: 6088 9b3c 503b 9abc 5027 f6bd 10c0 573e
00000130: 0ccf c0bd a8f9 05bd 9076 1abe dc4b f9bd
00000140: 0428 6cbe 38c2 9c3d e0de 0f3c 709c ddbd
00000150: c050 ad3c 946c b0bd 704f d43c bcc6 ae3d
00000160: a8e1 3f3e 8828 c13d 18a5 43be 1094 55be
00000170: 40cf e3bc fc05 f93d 302a 33be 4848 823d
00000180: ec62 6f3e 0671 54be e026 8dbc 448c 1e3e
00000190: 209c db3c f873 6f3d dab5 34be 9c09 a03d
000001a0: 2e87 493e 7863 763d 1452 013e b088 aa3c
000001b0: f0ed e73c 20b2 6fbc f809 e9bd ea33 623e
000001c0: 2a5a 2f3e e8c6 4c3d be58 3a3e b459 543e
000001d0: 189b 2abe 40a1 dabd 9858 52bd f0f1 f63c
000001e0: 3ec3 3cbe 501d 173d 2c4d 85bd be59 23be
000001f0: 0248 463e 74fc 01be cc5d b1bd 18e2 ed3d
00000200: faef 60be 8820 6e3e 76a6 713e 40eb dc3d
00000210: 8abd 3dbe 28cc a13d 0063 e83b cc21 633e
00000220: c8cf febd e467 5dbe b433 5c3e bef4 19be
00000230: e013 54bd b035 35be 5efe 2cbe 468a 1e3e
00000240: 7885 1f3e 120c 633e 7026 733e 7a98 173e
00000250: fc85 a8bd a063 0cbd ee56 7b3e 0053 cd3a
00000260: 0c0c 10be 3aa7 7f3e eccf 7bbe f261 6c3e
00000270: 404e 4dbd e029 7f3c f87c c6bd d00c ab3d
00000280: f826 8b3d 9adb 0d3e 7c42 b6bd d4e9 de3d
00000290: 5626 6c3e bc53 0c3e d066 5cbe 1cad c1bd
000002a0: 8440 aebd f89f 323d b05b 493d f83e eebd
000002b0: 8487 183e cc03 763e c086 2c3e d822 6d3e
000002c0: f800 3fbd 10c7 173e ea1a 563e 44bf 9a3d
000002d0: 02a8 6abe 40aa 853b 00c4 a9b9 e213 0d3e
000002e0: 22c0 413e cca7 81bd b89c fcbd 3cb9 d43d
000002f0: 565a 1fbe baf5 453e f2b9 0a3e 9477 01be
00000300: 8cf7 efbd 2ef5 273e bc76 c93d 38d2 293e
00000310: 3cda 3dbe 30dd e83d f625 75be 5cb3 66be
00000320: f0a0 083e 4039 603e 1c94 06be 9432 14be
00000330: 80ac 973b 7836 623e d005 a6bc b4bb 0abe
00000340: 208a 8abd 2050 69bc 981e babd 7819 a83d
00000350: 7072 703d a86e 0a3d b025 2fbd 28fa 05bd
00000360: 40ff b5bc 346b ec3d 5082 823d b8bb 1dbe
00000370: 78b8 9bbd 120f 68be 606d e9bc c42d 873d
00000380: d810 37be 50ce 92bc 001f 673c 5c08 bf3d
00000390: da24 163e ce86 5e3e 40e0 32bc cadc 7e3e
000003a0: e0f6 b73d 66b3 303e dc5e 67be ce67 60be
000003b0: 6025 c8bd 5051 30be 1ea9 4bbe 6ad7 1fbe
000003c0: d06b 0a3d b6e3 64be b832 4bbd 0822 c83d
000003d0: 747d 2e3e be83 3b3e d6e4 55be 6c3e a13d
000003e0: f8f4 85bd 6605 1cbe d022 5f3d 0820 043e
000003f0: 8811 5e3e 0c18 a83d f0fc b63c 22c0 19be
0.15093651 0.14503041 0.07423937 0.029381365 -0.10850772 -0.06226334 -0.069072485 -0.05775121
0.16176754 -0.055298448 0.05520612 -0.23238242 -0.1946271 0.006265402 0.031431615 -0.0632616
-0.046355367 0.18995216 0.15671101 -0.14288679 -0.014981002 -0.1620397 0.20831025 -0.12290856
-0.07377723 -0.18533728 -0.1627878 0.20471546 -0.086680174 -0.13102615 -0.049963355 0.033504874
-0.012644619 0.026791453 0.011117071 0.07576054 -0.13180405 -0.15063122 -0.059647948 -0.13565549
0.061315686 0.12336618 0.20840538 0.025594264 0.095392466 0.15259653 -0.20549464 -0.12107292
-0.07768467 0.07284278 0.15338305 -0.04537046 -0.018271595 0.020660311 -0.05643028 0.09445128
-0.13762227 0.2451297 0.18658158 -0.13201734 -0.18053696 -0.16833255 -0.11927274 -0.002082169
0.106214166 -0.23722544 -0.20866165 0.22238445 -0.1862883 -0.19949973 0.22633323 -0.04602486
0.018985927 -0.01882711 -0.12019217 0.2106936 -0.09414491 -0.032708794 -0.1508429 -0.12172672
-0.2306214 0.07654232 0.008781165 -0.10820854 0.021156669 -0.0861446 0.025916785 0.08533999
0.18738425 0.09431559 -0.19105947 -0.20857263 -0.027808785 0.121593446 -0.17496562 0.06361443
0.2337758 -0.2074624 -0.017230451 0.15483195 0.026807845 0.058460206 -0.17647496 0.07814333
0.19680473 0.060153455 0.12628967 0.02081713 0.0283117 -0.014629871 -0.113788545 0.22090116
0.17124239 0.04999438 0.18197915 0.20737344 -0.16660726 -0.10675287 -0.05135402 0.030144662
-0.18433854 0.03689319 -0.0650886 -0.15952203 0.19363406 -0.1269396 -0.086604685 0.116153896
-0.21966544 0.23254597 0.23598656 0.10787058 -0.18529335 0.07900268 0.00709188 0.22180861
-0.12441975 -0.21621662 0.21504098 -0.15034768 -0.051776767 -0.17696261 -0.16893908 0.15482435
0.15578258 0.22172573 0.23745131 0.14804259 -0.082286805 -0.034274697 0.2454488 0.0015664995
-0.14067096 0.24966136 -0.24591035 0.23084238 -0.050123453 0.015573949 -0.09691805 0.08352053
0.06794542 0.13853303 -0.088994 0.10884443 0.23061499 0.13703817 -0.21523595 -0.09456846
-0.08508399 0.04360959 0.049159706 -0.11633104 0.14895445 0.24024886 0.16848278 0.23157823
-0.046631783 0.1482203 0.20908704 0.07556012 -0.22915652 0.0040791333 -0.00032380223 0.13777116
0.18920949 -0.06330833 -0.12334579 0.10386893 -0.15561804 0.19332018 0.13547495 -0.12643272
-0.11717138 0.16402122 0.098371 0.16584098 -0.18540281 0.11370313 -0.23940262 -0.22529358
0.13342643 0.21896839 -0.13142437 -0.14472419 0.004628718 0.2209109 -0.020266443 -0.13548166
-0.067646265 -0.014240295 -0.090878665 0.08207983 0.058702886 0.033796936 -0.04276055 -0.03270927
-0.02221644 0.11543885 0.063725114 -0.1540364 -0.07603544 -0.22661999 -0.028494537 0.06600526
-0.17877519 -0.017920643 0.014106512 0.09327766 0.14662495 0.21731111 -0.010917723 0.24888912
0.089826345 0.17255935 -0.2259478 -0.21914598 -0.09772754 -0.17218518 -0.19888732 -0.15609518
0.033794224 -0.2235249 -0.049608916 0.09772116 0.17040044 0.18311974 -0.20888075 0.07873234
-0.06540865 -0.15236434 0.05447656 0.12902844 0.21686375 0.082077116 0.022337407 -0.15014699

fc2.weight f4 [256, 256]
00000000: a804 283d f4d8 14bd 804d 30ba 90ef 183c
00000010: d409 17bd 4c2d 9fbc 9202 61bd 88f1 11bc
00000020: 04dd 8abc 60c4 b9bc e020 48bc 809e 523a
00000030: a0af 3fbc 8042 8cba 0ada 583d 0084 f938
00000040: 804a 71bd 38b8 23bd b887 f1bc 7027 253d
00000050: 201a 95bc f8ce d9bc 10ce 313d 00b5 553c
00000060: e045 fd3c f8e9 f93c ccbb 243d e035 503c
00000070: 90ef 5fbc 9a03 02bd 0ed4 683d 1046 4d3c
00000080: f851 76bd 5890 433c bea1 1ebd 3a65 513d
00000090: ec46 4b3d f08f 0dbc cc36 70bd 3c8a f93c
000000a0: d8bb 4cbd cc98 1dbd c8fe 143d 3835 123c
000000b0: c652 2d3d 501a fbbc a8a3 4c3d 8411 e2bc
000000c0: 986a 603c 6426 7bbd c8a1 06bc d0d6 b33c
000000d0: 8ede 703d 0024 65bb 90e3 3d3d 746e e0bc
000000e0: b820 483d 4642 3fbd 60d4 47bc 42cb 19bd
000000f0: 08fc 3c3d d0ec b43b 702f 693d 9481 ffbc
00000100: 0413 c13c 6080 1e3c 1043 cbbc 641a c33c
00000110: ba92 5f3d 08b5 d1bc a0d4 1f3d e427 323d
00000120: ac04 6cbd 7881 63bc dcf9 a33c 38f2 8c3c
00000130: f8ca 41bd fc06 6ebd 40ec 7b3b b0cd b83b
00000140: 60c8 3bbd ae3b 02bd c0bb b2bb 0cf2 763d
00000150: 7e86 6ebd 58b6 173d c0bb 953c 6c9e 77bd
00000160: 1a36 23bd 80b9 673d d43e 34bd 409e 10bc
00000170: 1031 e53c 8a0f 09bd 0a11 3d3d c0a6 49bd
00000180: 8e56 67bd 7ce3 fc3c 7c41 3dbd 2c5c 3bbd
00000190: 209b 7bbd d83f e13c 00c3 f7ba de78 2c3d
000001a0: 34be 7bbd f87b d6bc 0092 433b b818 a63c
000001b0: c8f6 12bc 3ccb 4abd 5a9a 14bd c2df 1d3d
000001c0: 3862 783d 047f 76bd 9005 543c 3a5a 1c3d
000001d0: 50ac 83bb f8aa 2b3c aa22 603d 324a 503d
000001e0: 5ea4 4abd 8c3f df3c 3078 00bd 2af3 37bd
000001f0: 6aa4 7fbd d631 163d 9cf0 b23c 6055 b3bb
00000200: a4f7 6dbd 3a9e 7c3d 90a9 253d a859 15bc
00000210: 56c7 3f3d e64a 0dbd 8470 f13c c8c5 9cbc
00000220: 8446 14bd a089 463b 30a5 07bc a0ca 0cbc
00000230: 0414 563d 8097 b13c 60c9 fdbb 50a7 ce3c
00000240: 1616 733d 8071 efbc 68c7 0fbc b80c 9b3c
00000250: 84dc d83c 8e3a 4dbd 1645 413d 1e73 1a3d
00000260: 6052 66bd 8004 d8ba ac0c f33c 3e46 3cbd
00000270: ec98 423d e4bb 323d d8cf 483d 324e 7d3d
00000280: 5c8b 3b3d a44d 04bd 009f dfb9 cc3b fdbc
00000290: 00bf ed3b 4095 b63b 4850 a63c 7ed8 05bd
000002a0: 14cc c7bc ac26 ea3c a43d 913c 18cc 80bc
000002b0: 40a9 e33b d8df 3cbd a0f7 513c f079 08bd
000002c0: a269 23bd 1e54 17bd 622e 11bd 5648 32bd
000002d0: 16c3 453d ca90 76bd 3c8b 073d 00a0 b8b7
000002e0: 4612 013d 0079 fcbc b42a b7bc c04c 5f3c
000002f0: 4867 75bc 303e 30bc c899 2d3d d85e a53c
00000300: aca0 8b3c b4cf 403d 342a 3e3d e0eb cfbc
00000310: da9e 3f3d 8863 1dbc fad2 4dbd aa50 04bd
00000320: 001a 6239 5e02 553d b2c6 53bd 088e 61bc
00000330: 1c5e d4bc ae25 6fbd 70c5 3abd b6c5 10bd
00000340: 1c48 4cbd ec9c 26bd c863 50bd 00ec 5239
00000350: d4b4 0cbd 7c82 313d dc92 6dbd 40a6 8d3a
00000360: a098 033b ae62 14bd c21d 08bd a647 50bd
00000370: 0c81 25bd 5026 843c a86e 093c 32e4 673d
00000380: c422 e03c 7c80 87bc c2d3 593d f8f0 353c
00000390: 1a64 56bd 0267 753d 5ac3 2a3d 22d8 77bd
000003a0: 0286 773d 20c8 c23b 80f7 9a3b a488 64bd
000003b0: c888 05bd c626 483d e2c0 66bd 36ca 473d
000003c0: 301b aabb d0b7 d13c 5eed 073d f4e3 cf3c
000003d0: d40a 40bd f8af 443c 1889 fa3c d8e0 d23c
000003e0: cc9e 233d a0bd 76bd 3a8a 68bd 504f eabb
000003f0: 96ce 1dbd 5484 c63c dcef 97bc c65e 08bd
0.041020066 -0.036339715 -0.00067254156 0.00933446 -0.036874607 -0.019430779 -0.054934092 -0.008907683
-0.016951092 -0.022676647 -0.012214869 0.00080344826 -0.011699587 -0.0010700971 0.052942313 0.00011897832
-0.05890894 -0.039970607 -0.029483661 0.040320814 -0.018200934 -0.026587948 0.043409407 0.013043642
0.030917108 0.030507073 0.04021816 0.012708157 -0.013667956 -0.031741716 0.056842856 0.012528911
-0.060136765 0.01193627 -0.038728468 0.051121928 0.049628183 -0.008640274 -0.05864601 0.030461423
-0.04998383 -0.038475797 0.03637579 0.008923821 0.042315267 -0.030652195 0.049960762 -0.027596243
0.013697289 -0.06131591 -0.008217283 0.021953017 0.058805995 -0.0034964085 0.0463596 -0.027396418
0.048859328 -0.046694063 -0.01219663 -0.037547357 0.046138793 0.0055213943 0.056930006 -0.031189717
0.023568638 0.009674162 -0.024812251 0.023816295 0.05458329 -0.025599018 0.039021134 0.043495074
-0.057621643 -0.013885848 0.020016603 0.017205343 -0.047312707 -0.05811213 0.0038440377 0.0056397542
-0.04584539 -0.031795196 -0.0054545105 0.060289428 -0.05823373 0.03703913 0.018278003 -0.060453817
-0.039846517 0.05657339 -0.04400523 -0.008826792 0.027977496 -0.033462085 0.046158828 -0.04923129
-0.05647903 0.030870192 -0.04620503 -0.0457422 -0.061427236 0.027496263 -0.0018902719 0.042107455
-0.06146069 -0.02618216 0.0029841661 0.020275459 -0.00896997 -0.049510226 -0.036280014 0.03854347
0.060640544 -0.060179725 0.012940779 0.038171984 -0.004018344 0.010477774 0.05472056 0.05085201
-0.04947316 0.027251981 -0.03136462 -0.044909634 -0.062412657 0.03666862 0.021843247 -0.005472824
-0.058097497 0.061674334 0.04044491 -0.009115614 0.04682096 -0.034495257 0.029472597 -0.019137278
-0.03620006 0.0030294433 -0.00827913 -0.008593231 0.052265182 0.021678686 -0.007744953 0.025226265
0.059347235 -0.029228926 -0.0087755695 0.018926963 0.026472338 -0.05010467 0.047185026 0.03770744
-0.056230903 -0.0016480833 0.029669128 -0.045965426 0.04750912 0.043636218 0.04902634 0.06184215
0.0457872 -0.032300606 -0.0004265234 -0.030912302 0.007255435 0.005571991 0.020301953 -0.032677166
-0.024389304 0.028582893 0.017729588 -0.01572232 0.0069476664 -0.04611191 0.012815386 -0.033319414
-0.03989566 -0.036945455 -0.035444625 -0.043526016 0.04828175 -0.060196675 0.03309177 -2.2009015e-05
0.031511568 -0.030819416 -0.02235923 0.0136291385 -0.014978237 -0.010757014 0.042382985 0.020186827
0.017044388 0.04707308 0.046426967 -0.025381029 0.046782352 -0.00960625 -0.05025003 -0.03230349
0.00021562725 0.05200421 -0.051703162 -0.013766773 -0.025923781 -0.058385544 -0.045598447 -0.0353448
-0.049873456 -0.040676996 -0.05087641 0.00020115077 -0.03435214 0.04333733 -0.058001384 0.0010806993
0.0020079985 -0.03622692 -0.033231504 -0.05084958 -0.04040627 0.01613155 0.008388199 0.05661411
0.027360328 -0.016540758 0.053180464 0.011104815 -0.052341558 0.05991269 0.041690208 -0.060508855
0.060430534 0.005944267 0.0047292113 -0.055794373 -0.032601148 0.048865102 -0.05633629 0.048776828
-0.0051912293 0.025600344 0.033185355 0.025377251 -0.046885327 0.012004845 0.03058295 0.02574198
0.039946362 -0.060239434 -0.056772448 -0.007150568 -0.038527094 0.02423302 -0.018546991 -0.033293508

fc2.bias f4 [256]
00000000: d4f7 243d c8cf fbbc d000 ba3c 4059 60bb
00000010: 8c58 aebc e41d 9e3c d850 8ebc beaa 033d
00000020: 982a 363c e088 733d 508f a73c 20a6 453d
00000030: 4c77 f1bc 283b eabc 1ed9 613d 3e23 2dbd
00000040: d844 9cbc 5c05 b03c c4e5 6f3d 44d6 793d
00000050: 7283 583d c04d 56bb b02d 3fbd a8cf 613c
00000060: e401 4abd 508d 85bb 7c73 b4bc 30a5 f33b
00000070: 4877 18bc b6b3 3f3d ec1f 1d3d 784f 9dbc
00000080: ee0f 253d e4d8 e5bc 609c 1ebc 7818 583d
00000090: 38bd 76bc 0067 a7bc 4045 cdbb 4449 13bd
000000a0: 30de 413d 2c08 c93c 5e87 5a3d e20a 32bd
000000b0: d455 c9bc 9a03 34bd 60b0 7b3b b819 99bc
000000c0: ae7b 743d 9842 bcbc 8074 21bd f83b 703c
000000d0: 2047 c73b 1ca0 b73c ccc7 903c 60c7 32bc
000000e0: aa0e 1a3d 7846 58bd 34fa a33c e812 83bc
000000f0: c4a0 a0bc 1601 0bbd b047 10bc 540f 0ebd
00000100: 006d 80bc 100d 86bb 68d8 79bd c09c 543c
00000110: 2e62 74bd 582d e0bc 34b1 593d 6007 503b
00000120: ecb8 663d 363e 31bd c0cc 323b 642f 2a3d
00000130: d40d b53c 78b8 d5bc e0e3 463c 700c aebb
00000140: 20e2 323c 54f0 6a3d d2cb 51bd d6f5 4bbd
00000150: 9858 edbc c0b9 b4bb a2a3 033d 6c93 1b3d
00000160: 802f 78ba eed8 46bd 1c42 5d3d 40c9 8c3b
00000170: c0d7 0bbd 40f8 da3a d03b 92bb f865 673c
00000180: 0088 2e39 0c9d a0bc 8c94 bebc 04fc 0dbd
00000190: 60d1 853b caad 033d 14e3 963c 46a1 4fbd
000001a0: 683b 81bc b8d5 c3bc 0c23 f2bc 26f4 3f3d
000001b0: 1274 353d 2493 593d 2e08 0f3d 78b9 d4bc
000001c0: 1089 253d c0d0 5ebd 6080 7abd c695 083d
000001d0: 3036 9bbb cc5b 693d 5894 6a3c 3c55 cebc
000001e0: 0ee5 7abd 181f 533c 1000 e3bb 462f 623d
000001f0: 5e17 44bd 6867 78bd ecdf 83bc 1a3b 3fbd
00000200: 4eb3 023d 78bc ec3c 503d 28bc d09e 3a3d
00000210: c204 113d 442f aebc 006c 49b9 00e0 35bc
00000220: e249 44bd 947f 8cbc 8e26 423d c00c 85bc
00000230: a40c aa3c 129a 263d 28ff 33bc 1266 6fbd
00000240: c091 2fbb 5c6b 68bd b23f 1e3d d4a4 fa3c
00000250: dc6a 9b3c e27b 273d fcf7 863c ea9e 7cbd
00000260: bc08 063d 4236 5a3d de9c 463d e62f 6fbd
00000270: ca56 1f3d 041f 1d3d 8404 dc3c 20eb b3bc
00000280: b689 50bd 96b1 7dbd cc44 15bd 7893 49bc
00000290: 182f 29bd 5055 8c3b 94ad 66bd 803e 2aba
000002a0: 0852 393c 8465 cabc 9aff 133d dcf1 5fbd
000002b0: 18f4 1e3c d806 58bd 4091 f83c de0e 4f3d
000002c0: 3abd 71bd d482 52bd acf0 483d 6e47 793d
000002d0: 1482 b3bc 3ca0 cf3c 5833 773d 90b2 d5bc
000002e0: 286c a2bc 0087 243a 22b1 46bd dc3d 203d
000002f0: 2049 99bb 30bb 9f3c 00d5 ce39 626a 77bd
00000300: 241b 853c c4af e5bc c066 0c3b 9a6f 4abd
00000310: d22b 6abd 7053 96bc 40e4 f73a 08fc ca3c
00000320: 7877 a7bc c05c e2bb 1ccd ba3c 680c 443c
00000330: 64f3 c0bc f4e9 0c3d 0c1d 633d a237 343d
00000340: c0e8 c83c d815 eb3c dca3 4c3d 98de 7b3d
00000350: 1c3d 753d ea3c 3f3d 52ad 593d 86b5 073d
00000360: 325c 4e3d e464 bd3c f075 40bd 9c15 efbc
00000370: 5401 74bd a8e7 883c 9ebb 1abd 2065 c53c
00000380: deeb 35bd 92be 08bd b884 673d 16a1 623d
00000390: 5459 7ebd 5e36 78bd 7085 81bb fcd4 f73c
000003a0: 864a 5ebd d00f f43c 9c42 f43c d084 ab3b
000003b0: 7099 0ebd 7402 5c3d da52 443d 24ed 82bc
000003c0: a0f4 c8bc 083c 2e3c d038 b93c 34a9 303d
000003d0: 7efe 02bd 20ec 0fbb e0a5 4abc d851 7c3d
000003e0: 1c71 2e3d 6855 5dbd b452 6ebd a0a5 693d
000003f0: 1aef 733d 5809 e33c 027d 373d a00c fd3c
0.04027541 -0.030738726 0.022705466 -0.0034232885 -0.021282457 0.019301362 -0.017372534 0.032145254
0.011118554 0.059456706 0.020454079 0.048254132 -0.02947583 -0.028592661 0.0551387 -0.042269938
-0.019075796 0.02148693 0.05856873 0.060995355 0.05285973 -0.0032700151 -0.04667443 0.013782419
-0.04931821 -0.0040756837 -0.022027723 0.0074354634 -0.009305783 0.046802245 0.03836052 -0.019202933
0.040298395 -0.028057523 -0.009680837 0.05275771 -0.015059762 -0.020434856 -0.0062643588 -0.035958543
0.047331035 0.02454003 0.053351752 -0.04346741 -0.024577059 -0.043948747 0.0038404688 -0.018689021
0.059688263 -0.022980973 -0.039417744 0.014662735 0.006081477 0.022415213 0.017673396 -0.0109117925
0.03761164 -0.05280158 0.020016767 -0.016000226 -0.019607909 -0.033936583 -0.008806154 -0.034682587
-0.015676975 -0.0040909126 -0.060997397 0.012976825 -0.059663944 -0.027365372 0.05314751 0.0031742677
0.0563287 -0.04327222 0.0027282685 0.0415491 0.02210132 -0.026088938 0.012139291 -0.0053115413
0.01091817 0.0573581 -0.05121977 -0.049794994 -0.028972909 -0.005515307 0.032138474 0.03798239
-0.0009467527 -0.048546724 0.054018125 0.004296452 -0.034141302 0.0016706064 -0.0044626966 0.014123432
0.00016644597 -0.019606136 -0.023264192 -0.03466417 0.0040837973 0.03214816 0.018418826 -0.05069091
-0.015775397 -0.02390562 -0.029557727 0.046863697 0.044300146 0.05311884 0.03491991 -0.025967345
0.040413916 -0.0543983 -0.061157584 0.03334596 -0.0047366843 0.05697231 0.0143175945 -0.025187127
-0.0612536 0.012885831 -0.0069274977 0.055220865 -0.047873847 -0.06064549 -0.016097985 -0.046687223
0.03190928 0.028898463 -0.010268524 0.04556161 0.035404928 -0.021262772 -0.00019209087 -0.011100769
-0.047922023 -0.017150678 0.04740005 -0.016241431 0.02075798 0.040674277 -0.010986127 -0.05844695
-0.0026789755 -0.05674301 0.038634963 0.030596174 0.018971853 0.04088963 0.01647567 -0.06167499
0.032723173 0.0532744 0.048489444 -0.05839529 0.038901128 0.038359657 0.026857622 -0.021962702
-0.05091258 -0.061936937 -0.036442563 -0.012303226 -0.041304678 0.004282631 -0.05631788 -0.00064942986
0.011311062 -0.02470661 0.036132433 -0.054674014 0.009701751 -0.0527409 0.030342698 0.050551288
-0.05901835 -0.0513943 0.049057648 0.060859136 -0.021912612 0.02534496 0.0603517 -0.026086122
-0.019826964 0.000627622 -0.04850877 0.039121494 -0.0046779066 0.019498438 0.0003945008 -0.06040419
0.016248293 -0.028037913 0.0021423548 -0.049422838 -0.057170697 -0.018350333 0.0018912628 0.024778381
-0.02044271 -0.0069080293 0.022802882 0.0119658485 -0.023553558 0.034402803 0.055447623 0.043998368
0.024525046 0.02869694 0.049960956 0.06149158 0.05987273 0.04668895 0.053143807 0.0331321
0.050380893 0.023119397 -0.046987474 -0.029185109 -0.05957158 0.016712025 -0.037776582 0.024096072
-0.044414394 -0.033384867 0.056523055 0.055329405 -0.06209691 -0.060598724 -0.0039526746 0.030252926
-0.05427029 0.029792696 0.029816918 0.0052343383 -0.0348143 0.053713277 0.047930576 -0.015982218
-0.024530709 0.01063443 0.022610098 0.043130115 -0.031980984 -0.002196081 -0.012368649 0.06160149
0.04258834 -0.054036528 -0.05818434 0.057042718 0.059554197 0.027714416 0.04479695 0.03088981

fc3.weight f4 [256, 256]
00000000: 1095 49bd 742f d43c f86e e6bc cc6c 803c
00000010: 208a 82bb 9c23 0e3d 60a1 743b 385f 85bc
00000020: dcde 44bd 4867 383d cad0 203d c032 60bb
00000030: d00b 1d3d 6aaf 62bd 2cca afbc 5841 ebbc
00000040: fed9 013d 825a 05bd a85f d93c 9838 c8bc
00000050: a09f f9bb 4454 ae3c 509f 4fbd fc03 c8bc
00000060: 2024 783d b0c5 ed3c f8a9 84bc e48a f43c
00000070: e02f 96bc 9096 663d 144c d63c 9ca2 b83c
00000080: 5a19 083d 9824 9f3c 402f 64bc c2ed 4f3d
00000090: b80d 173c c6b5 58bd c084 823c 88ec 063d
000000a0: 4083 5fbd dcbc 863c 9eb5 7a3d 203f 403b
000000b0: ae26 5e3d 1cc5 a7bc 084a 703c 7c6d c9bc
000000c0: 98de a5bc 4c61 f0bc 8c3d 723d 48a7 7ebd
000000d0: f65a 433d e4b6 513d 64b4 733d 3092 e0bb
000000e0: cc75 a2bc 005f 0b3a 2c18 1ebd 28dd 16bc
000000f0: a01e 453b 584f b93c b840 4a3c 80c2 41ba
00000100: ec3f 493d 18a3 793c 6ae5 5abd f2a9 7fbd
00000110: a42b 93bc 4844 f4bc 94fd e3bc 66f9 34bd
00000120: 26a7 4f3d 00e2 5e3b 1adb 613d e411 c0bc
00000130: a05e 48bd 1c7f e7bc 9058 65bc cc03 613d
00000140: 9633 17bd 0055 a03b a0a1 0f3d e8fd 79bc
00000150: 7467 e83c 1007 83bb e03a 4fbc 6cc5 bdbc
00000160: 2c14 1b3d 8234 04bd 968f 14bd 08be afbc
00000170: f82e 1dbc c477 fcbc 92ab 183d e0e6 0dbd
00000180: 8255 14bd a885 67bd dc84 3a3d 167e 60bd
00000190: 14f3 9e3c 6cb3 54bd 2ccc 03bd b40d 643d
000001a0: 68ab f8bc 4cb6 8bbc 4c2c b13c d4cf 59bd
000001b0: 5032 0a3d 9419 20bd e0a9 06bb 7c07 023d
000001c0: 6879 7f3d a05e 143d 7cb7 a33c f877 5cbd
000001d0: 2881 093c 40fa 513b e45c fb3c d8d0 97bc
000001e0: 64d4 fabc 50a6 45bc a6d1 19bd b099 413d
000001f0: 6e92 30bd 80f5 a8ba f015 bfbb 04b2 b93c
00000200: c08e c43c 36a9 143d 6689 3e3d 6024 483d
00000210: f475 f43c 5418 053d 600c 743b 9852 94bc
00000220: aa63 5bbd f280 0f3d 94ad 0f3d 9871 27bc
00000230: fce5 483d 56bc 51bd c88a a2bc 7e64 40bd
00000240: a091 7fbb 9018 af3b de63 773d ccab 8dbc
00000250: 847e ed3c f60f 043d 56e2 70bd b0e2 5bbd
00000260: 26d7 4fbd 804e 4bbb d8b4 403d f8c0 c03c
00000270: 361d 46bd f0d7 31bc f090 20bc e8e7 f03c
00000280: 8082 ccbc c03c 9abb 5027 af3b f2b3 133d
00000290: 705a 593d 306a 353d c898 4dbc 9468 263d
000002a0: 0897 523d 38cf 37bc 2a45 7b3d 9ebe 4fbd
000002b0: 74f2 0a3d 4aab 0bbd 84e4 70bd 202d 45bc
000002c0: 7a74 15bd 80d7 d1bc a8ff 17bc bcd5 b1bc
000002d0: 5429 71bd d672 433d 5826 793c 1255 5dbd
000002e0: 84ed 40bd 148e 68bd 7849 5cbc 781b 2f3d
000002f0: 2030 afbb 7c45 50bd 04bd f2bc 005b 7b3d
00000300: e8bd e5bc a056 503b 5069 203d 2eb3 0d3d
00000310: 700d 80bc 8223 7a3d e8f5 6ebd 6cc6 ba3c
00000320: 6a7a 733d ac43 5ebd ba35 73bd b026 3fbd
00000330: 888d 153d fce5 0ebd be22 4bbd b851 94bc
00000340: e4c8 5e3d 90cb a6bb 0a1c 6dbd 6c0d bb3c
00000350: 1674 60bd 50f4 e53b 5076 d83c d046 96bc
00000360: 6c02 20bd b499 433d a84e 423c 60ab e93b
00000370: 5083 ab3c a8ad 39bc 6668 0e3d 90c0 20bc
00000380: 882d 4bbd 78d5 9fbc 28b4 3b3c 0435 be3c
00000390: b00a fdbc 04fc 50bd 5e3b 5e3d 788a 253d
000003a0: 1091 793c e09c 053c 881f 123d 9405 93bc
000003b0: 3442 e6bc 7e97 5c3d e689 413d 6c98 51bd
000003c0: 0023 5aba e875 fb3c f055 6d3c c415 7d3d
000003d0: c0fe cb3a b024 0b3d b2ce 07bd 0022 573b
000003e0: b823 d23c 80d2 5cba 70bb f93b 6080 fc3b
000003f0: 4a0d 3dbd 2643 7ebd cc03 f73c f4c3 0d3d
-0.049214423 0.025901534 -0.028129086 0.015676878 -0.003983751 0.03470193 0.0037327632 -0.016280755
-0.048064098 0.04502037 0.039261617 -0.0034209937 0.038341343 -0.05534307 -0.021458708 -0.028717682
0.031702034 -0.032557018 0.02653487 -0.024441049 -0.0076179057 0.021280415 -0.05068904 -0.024415962
0.060581326 0.029024929 -0.016194329 0.029851384 -0.018333375 0.05629593 0.026159324 0.022538476
0.033227302 0.019426629 -0.013927281 0.050763853 0.009219579 -0.052907728 0.01593244 0.032940418
-0.05456853 0.016447477 0.06120836 0.00293345 0.054236107 -0.020479731 0.014666088 -0.024588339
-0.020247743 -0.02934327 0.059140727 -0.06217125 0.04769417 0.05119981 0.059498206 -0.0068533644
-0.01983156 0.00053165853 -0.03859727 -0.009208001 0.0030078068 0.022620842 0.012344532 -0.00073913485
0.049133226 0.0152366385 -0.053441443 -0.06241793 -0.017965145 -0.029817715 -0.027830876 -0.044183157
0.050696515 0.0034009218 0.055140592 -0.02344603 -0.048918366 -0.028258853 -0.013998166 0.05493526
-0.03691443 0.0048929453 0.035066247 -0.01525829 0.028369643 -0.0039986446 -0.012648314 -0.023165427
0.037861034 -0.032276638 -0.036269747 -0.021452919 -0.009593718 -0.030818827 0.037272997 -0.034644008
-0.03621436 -0.05652395 0.04553686 -0.054807745 0.019403018 -0.051928923 -0.032177135 0.05567713
-0.03035517 -0.0170547 0.021627568 -0.053176716 0.033739388 -0.039086893 -0.002054803 0.03174542
0.06237164 0.036223054 0.019984953 -0.05382535 0.00839261 0.003204003 0.030683942 -0.018532202
-0.030618854 -0.012063578 -0.037553452 0.04726571 -0.043108396 -0.0012890548 -0.0058314726 0.022667892
0.02399385 0.036294185 0.046517752 0.048862815 0.0298414 0.032493904 0.0037238821 -0.01810579
-0.053561844 0.03503508 0.035077646 -0.010219954 0.049047455 -0.051205 -0.019841567 -0.046970837
-0.0038996711 0.0053435043 0.060397975 -0.017293833 0.028990991 0.032241784 -0.0588096 -0.053682983
-0.05074229 -0.0031022131 0.047047466 0.023529515 -0.0483677 -0.010854706 -0.009800181 0.029407457
-0.024964571 -0.004706949 0.0053452626 0.03606028 0.053064764 0.04429072 -0.012548633 0.040627077
0.051413566 -0.011218838 0.061345257 -0.050718896 0.033922628 -0.0340989 -0.05881168 -0.012034684
-0.036488034 -0.025615454 -0.009277262 -0.021708362 -0.058877304 0.047716938 0.015206896 -0.054036207
-0.047101513 -0.05677612 -0.013445251 0.042750806 -0.005346313 -0.050847515 -0.029631145 0.06136608
-0.028044656 0.0031789914 0.039162934 0.034594707 -0.015631407 0.06106902 -0.058339983 0.022799693
0.059442915 -0.054263756 -0.05937741 -0.046667755 0.036511928 -0.0348873 -0.04959368 -0.018105373
0.054390803 -0.0050901845 -0.05788807 0.022833548 -0.05479821 0.0070176497 0.026423603 -0.018344313
-0.03906481 0.047754005 0.011859573 0.007131025 0.020936638 -0.011332907 0.03476753 -0.0098115355
-0.04960397 -0.01951097 0.011456527 0.02321864 -0.030888885 -0.05102159 0.054255836 0.040415257
0.0152323395 0.008155078 0.0356746 -0.017946996 -0.02810774 0.05385541 0.04725065 -0.05117075
-0.00083212554 0.03069587 0.014485821 0.061788335 0.0015563592 0.033970535 -0.033156104 0.0032826662
0.025651798 -0.0008423701 0.0076212212 0.007705733 -0.04615525 -0.062075756 0.030153178 0.034610704

fc3.bias f4 [256]
00000000: ae04 7cbd 1288 2abd 0cc5 e63c fce7 bdbc
00000010: eccd 093d 7ae6 27bd 98f9 9a3c a0d2 5dbd
00000020: 7016 983c 6000 733b 8090 563a a448 3abd
00000030: d82f 0d3d c028 b73a 00d8 4938 8212 7abd
00000040: c27b 053d 5ec5 223d 4841 c83c 04c3 d4bc
00000050: 0011 b7bc fef8 0a3d d453 82bc 40a9 853c
00000060: 2c9e f7bc 82a5 763d e02e f2bc 008e 29bd
00000070: 3048 a2bb ccc9 6a3d eca0 213d 9457 c83c
00000080: 60e5 1b3b 50bd e0bc e881 2dbd dc8f d7bc
00000090: 14f7 6cbd 440e f23c 7c5b c6bc 26a9 7cbd
000000a0: c0e2 333b a03f 243c 403b 6e3b be2e 34bd
000000b0: 840e 5d3d 5015 d93b e87c 71bd 0ef0 673d
000000c0: 04c4 2e3d c07a 663d 002b 2f3d e44f 093d
000000d0: e0e5 983b 6017 1cbc c681 48bd a096 ce3b
000000e0: 6435 b4bc 7665 533d 28dd 55bd c814 70bc
000000f0: 9c84 0bbd 3a79 3fbd a0c9 ba3c 9288 173d
00000100: c80a a6bc 8215 793d 5671 0b3d f0a1 093d
00000110: 4067 cc3c e83b 643d 805f 46ba 68a5 8a3c
00000120: 5853 95bc 1835 ec3c e28a 5e3d bcc9 e4bc
00000130: e03c b3bb 4c0a dfbc ecb1 5e3d a09c ccbc
00000140: 3048 5dbd 7681 383d 1a86 1f3d e4ea cd3c
00000150: 2027 32bb 6061 35bd 527f 37bd e040 333c
00000160: 6c6e 32bd d099 8f3b c247 3dbd 20cd 7e3c
00000170: 5848 1f3d 5e6b 763d 583d d53c c0f9 88bc
00000180: eea1 073d 4619 65bd f0a0 bfbc 4aa9 063d
00000190: 5820 d03c d804 56bc f80f f13c 5092 283d
000001a0: 1878 393c dec5 6c3d b001 07bd f490 2bbd
000001b0: 366d 4b3d d47b 50bd a4b0 e5bc d85b 4a3c
000001c0: 703e 513c c86b 5fbd ac5d 15bd 22d4 52bd
000001d0: 5a9a 0d3d 907c 7abd 8080 c0ba 400a 1bbd
000001e0: 4806 a63c 7a1a 2a3d 08ea 29bc a8a2 d9bc
000001f0: 22c6 54bd e0f2 7f3b dc4b 5e3d 4090 c03a
00000200: a827 d5bc a8a1 1a3d 80db 063b 18ec 37bd
00000210: 6436 c73c c0a7 a3ba 8e50 0c3d 149e 813c
00000220: 2ee3 1c3d ac01 683d acd3 3f3d be8a 533d
00000230: 98a0 093c f057 4a3c 2e75 043d ac6e 523d
00000240: 2a3a 523d 4455 eabc a6cf 333d e0ec 3ebb
00000250: 84d9 9abc c27e 243d 9872 723d a078 ca3b
00000260: f4d4 0d3d e2f4 37bd f86a f2bc 58fd 633c
00000270: 80f0 07bb 601a 95bb aece 00bd b433 38bd
00000280: 32ef 1e3d a003 cbbc bc17 29bd 5677 303d
00000290: 5409 a9bc ee3b 473d 9038 e43b 2c8e 083d
000002a0: b4b3 623d a8ec 323d a01c b3bb 603e f23b
000002b0: 806b 963c 8a7b 513d 58e0 623c 84ba 553d
000002c0: 1e97 3fbd 3cf6 d43c f80a f53c ca2f 723d
000002d0: 9046 c73b acd2 563d ccfe 5dbd 9842 76bd
000002e0: 0aae 6abd 984d a13c 8adf 663d 44b6 c63c
000002f0: 865c 6a3d f8a0 b2bc 76b2 0fbd ac6c dd3c
00000300: f067 553c e090 aebc 3466 463d 627c 58bd
00000310: c098 95bb b4a2 ebbc be14 4fbd 94a4 cfbc
00000320: 90e8 6e3c 6210 42bd 18b2 7e3d a2e9 0f3d
00000330: 106d 6f3c 5822 113c 443f 5bbd c811 1a3d
00000340: 3a2d 393d dce1 9e3c 9468 7fbd e084 76bc
00000350: c0ce 583d a08f 43bb 9e73 54bd 38c9 343c
00000360: 1c60 bc3c 54c1 f83c fe02 163d 20ad 803c
00000370: d0ee 3ebc 246f 3bbd 3871 343c 10dd b83b
00000380: b853 18bc 9e07 2abd a0ed e3bc ac12 223d
00000390: 7efc 32bd 789c ba3c 30e6 ab3c cafa 203d
000003a0: 3cf0 7fbd 08ff 413d 88d9 7c3d 58de 483c
000003b0: 2030 cabb 4c9f d13c c06c 773d f47d 0d3d
000003c0: 80ec 0cbd 70d7 d53c 98cf 0a3d d2b9 453d
000003d0: 1084 2e3d 3efa 1e3d 5466 36bd 20bc 883b
000003e0: 5cb5 db3c 4c18 d23c e03c dabb 90e8 f63b
000003f0: ac27 5d3d 287b 7cbc 2089 363d 00ee e3bc
-0.0615279 -0.041633673 0.028170131 -0.023181908 0.033643648 -0.040991284 0.018917844 -0.054155946
0.018565387 0.003707908 0.00081849843 -0.04547943 0.034469455 0.0013973936 4.81233e-05 -0.061052807
0.032588728 0.039739005 0.024445191 -0.025971897 -0.022346973 0.033928864 -0.015909113 0.016316056
-0.03022679 0.060216434 -0.029563367 -0.041395187 -0.004952453 0.057321355 0.039460108 0.024455823
0.0023787841 -0.027434021 -0.042360216 -0.026313715 -0.05785282 0.029547818 -0.024213545 -0.06168475
0.0027448386 0.010024935 0.0036351234 -0.04398989 0.05396892 0.006624855 -0.05895701 0.05662542
0.042667404 0.056269407 0.042765617 0.033523455 0.004666075 -0.009527057 -0.048951887 0.006304577
-0.021998115 0.051610433 -0.052212864 -0.014653392 -0.034062013 -0.04674647 0.02280122 0.036995478
-0.020268813 0.060811527 0.034043632 0.0336017 0.024951577 0.055721194 -0.0007567331 0.016924575
-0.018228218 0.02883391 0.054331668 -0.027928226 -0.0054699033 -0.02722659 0.0543689 -0.024977028
-0.05402392 0.04504534 0.03894625 0.025136419 -0.0027183965 -0.044282317 -0.044799156 0.01094076
-0.043562338 0.0043823496 -0.04621101 0.015551835 0.03888735 0.060160987 0.026030228 -0.016720653
0.033113413 -0.055932306 -0.02339217 0.03287629 0.025406048 -0.013062678 0.02942656 0.04115516
0.0113201365 0.05780589 -0.032960594 -0.041886285 0.0496647 -0.05089934 -0.02803833 0.012350999
0.012771234 -0.054546148 -0.036466286 -0.051471837 0.03457103 -0.06115395 -0.0014686733 -0.037851572
0.020266667 0.041529156 -0.010370739 -0.026566818 -0.051946767 0.0039054677 0.054271564 0.0014691427
-0.026019886 0.037751824 0.002057761 -0.04490289 0.024317928 -0.0012485906 0.03425651 0.015822448
0.038302593 0.05664222 0.046832725 0.051645987 0.008400105 0.0123500675 0.032338314 0.051375076
0.051325 -0.028605111 0.0438992 -0.0029132888 -0.018902548 0.04015995 0.059191316 0.0061789304
0.034626916 -0.044911273 -0.029592022 0.013915382 -0.0020742714 -0.0045502633 -0.031447105 -0.044971183
0.038802333 -0.024782002 -0.0412824 0.043082558 -0.02063433 0.048641138 0.0069647506 0.03333871
0.05534716 0.043682724 -0.005466059 0.0073926896 0.018361807 0.051143207 0.013847433 0.05217983
-0.046774976 0.02599632 0.029912457 0.059127606 0.0060814098 0.052447006 -0.05419807 -0.060122102
-0.057294883 0.01969032 0.056365527 0.024256833 0.057217143 -0.021805272 -0.035082303 0.027029358
0.013025269 -0.021309316 0.048437312 -0.052852996 -0.0045653284 -0.028764106 -0.05055689 -0.025347032
0.014581814 -0.047378905 0.062181562 0.03513492 0.014613405 0.008858286 -0.05352713 0.037614614
0.045209147 0.019394808 -0.062355593 -0.015046328 0.052931547 -0.0029840246 -0.051868074 0.011034302
0.022995047 0.030365624 0.036623947 0.015707552 -0.011653617 -0.04576029 0.011013322 0.005641587
-0.009297304 -0.04151117 -0.02782327 0.03956859 -0.043697827 0.022779688 0.020983785 0.03930167
-0.062484965 0.047362357 0.06173089 0.012260042 -0.0061702877 0.025588654 0.060406446 0.034543946
-0.03440523 0.026103705 0.033889383 0.048272915 0.042606413 0.03881287 -0.04453118 0.004172817
0.026819877 0.025646351 -0.006660089 0.007535048 0.053992912 -0.015410222 0.044564366 -0.027823448

fc4.weight f4 [16, 256]
00000000: 20a2 c13c 1273 023d 202b 0ebd c031 463b
00000010: c85d e7bc 540f 513d 72a2 393d 145d acbc
00000020: 70aa 4e3c 88d4 2b3d d4d6 6b3d 78ec c03c
00000030: a0fe 2b3d 02d2 1c3d 0ab5 203d 80b8 4fbb
00000040: e800 2abc 3822 603d be33 6ebd 2ab3 31bd
00000050: 882c 723d 687a 533d 7c1c 5abd a07e 873c
00000060: be00 72bd 3010 29bc 362e 68bd e0b9 f43b
00000070: 3002 313d e834 0e3c 80ec c33a bc66 ed3c
00000080: 0cf6 003d 5e55 25bd 921c 103d 90bb 79bc
00000090: 74df 5f3d d0e6 e63b 4cea d53c a847 01bc
000000a0: 2a1a 5e3d c0a6 90ba 0429 323d b86f e43c
000000b0: 70d4 abbc 0057 36bd 8075 a13a 8e86 1a3d
000000c0: b85d 6c3d 08f8 6c3c 8018 5a3a 7412 1fbd
000000d0: 3c7f 333d 8c9a 943c ead7 3f3d 305d 7ebc
000000e0: 18d7 52bc 302b a4bb 5e2b 1b3d 40c2 373b
000000f0: 3ed5 66bd c44c 90bc c084 21bc d85d 34bc
00000100: cc97 00bd 2047 55bb a08a 28bc 6627 67bd
00000110: 9a09 0f3d 8084 11bd 6a2e 59bd 808d 5b3b
00000120: 584e b8bc 1875 8cbc bca6 28bd b0d2 f63c
00000130: f0ec 683d dafa 5ebd 1888 49bd b833 8f3c
00000140: 4453 20bd 0c07 80bc b000 573c 0034 dfba
00000150: 08a2 14bc e8dc e1bc d005 d1bb c04a 713c
00000160: f06b 65bc 9842 d83c 5a14 563d b833 29bd
00000170: e8cb 39bc 7cba 55bd 92c8 403d 5430 83bc
00000180: 0ee5 77bd 904a 183d b09c 7cbc ea66 6ebd
00000190: aaf1 2fbd 7c44 86bc e006 143b e057 8fbc
000001a0: 4e20 393d 8c3e 96bc d414 5a3d 3ce4 cabc
000001b0: 80e6 a8ba 463a 42bd 5855 4dbd 56dc 1e3d
000001c0: 3824 50bc 8cbb 23bd 64af 433d 300c 60bc
000001d0: 1e35 43bd 5077 56bd e8ea 1c3d ac52 ecbc
000001e0: 4a19 51bd 2cbf 82bc b0a2 4dbc e85f 613c
000001f0: e407 f63c 6845 8c3c 9c3c 27bd 34e8 a8bc
00000200: e221 4fbd 0c33 adbc 80d3 c53b fe4d 383d
00000210: 8ef4 20bd e4b8 0b3d e6f4 273d 560f 483d
00000220: 7837 e63c c425 24bd 543b 49bd 34b0 0e3d
00000230: cec9 6f3d d6cd 563d 6400 dfbc 3836 3d3d
00000240: 24c4 c3bc 4033 f03b e0bf ac3b fe61 503d
00000250: e069 06bd 5c0b db3c 60e7 0e3b e0cf 55bd
00000260: 6097 9abc 2a2a 1a3d 3a9d 6d3d 200b 19bd
00000270: e4bf 54bd 4e0a 68bd 006f 863b 76c6 303d
00000280: 9064 d5bb 4032 b23a 6a0d 4f3d e0d2 1a3c
00000290: 9021 43bd 0239 213d 064c 3a3d ca5d 673d
000002a0: 708b 9fbc a4e7 25bd c63a 663d b099 74bd
000002b0: b0e9 55bd c079 ea3a 5c28 f3bc 20b7 2bbb
000002c0: 3c4f ca3c 3819 f5bc 4c18 e1bc e09a 523d
000002d0: 2c6b 0b3d 4cec 46bd ac83 36bd 4473 e1bc
000002e0: 9e86 693d 90a4 f2bc 8276 42bd b04e bfbb
000002f0: f408 fb3c 08e3 39bd 5498 8cbc a0be fe3c
00000300: b081 793d f44e b0bc 0054 e4bc aa4f 1ebd
00000310: 7447 9dbc d80f 033d 068b 76bd 3867 49bc
00000320: f404 063d 70ef 80bc 4889 4dbd 5848 b73c
00000330: 180c d53c d61a 17bd 3c13 0a3d 84f5 dcbc
00000340: 2033 163c ee30 513d 40f7 f53b 4c13 933c
00000350: a0aa 03bc 8073 9c3c 44a5 d63c 7821 d53c
00000360: 843d 45bd 6066 6dbc d854 59bc 86a8 65bd
00000370: 90f0 ad3b 7200 35bd 8043 643d 8416 3a3d
00000380: 40c3 7d3b 4078 a7bb cc06 54bd 7ace 603d
00000390: 7c53 ee3c 5083 403c 7057 fd3c 506f cd3b
000003a0: c079 85bc 7042 65bc 9652 2dbd e051 363b
000003b0: f604 473d a0b0 1fbc 94b2 aebc 26ee 673d
000003c0: 88be 01bd 809c 22ba 3833 3abd f6a8 5cbd
000003d0: 180a a43c 3e0b 6dbd 9045 d53b d42f 393d
000003e0: 0045 0e3a 34a6 293d 824a 5abd 0cc6 7f3d
000003f0: 7079 21bd 60b0 2ebd 1c9b 083d 5a7e 4d3d
0.023636878 0.03184802 -0.034709096 0.0030242056 -0.02824296 0.05104001 0.045320936 -0.021040477
0.012613878 0.041950732 0.057577923 0.023550257 0.041990876 0.038286217 0.039235152 -0.0031695664
-0.010376193 0.054720134 -0.058154814 -0.043383755 0.0591245 0.051630408 -0.05324982 0.016539872
-0.05908274 -0.010318801 -0.056684695 0.007468447 0.043214977 0.008679606 0.0014947802 0.028979652
0.03148465 -0.040364616 0.035183497 -0.015242472 0.05465646 0.007046558 0.026112698 -0.007890619
0.05422417 -0.0011036023 0.043496147 0.027885303 -0.020975322 -0.044516563 0.0012318343 0.037725978
0.057706565 0.014463432 0.0008319691 -0.038835958 0.043822512 0.0181401 0.04683677 -0.015525147
-0.012868665 -0.005010031 0.037883155 0.0028039366 -0.056355707 -0.01761473 -0.00985831 -0.011008702
-0.031394765 -0.0032543615 -0.010286957 -0.056434058 0.034921266 -0.035526752 -0.05302278 0.0033501089
-0.022498295 -0.017145678 -0.041174635 0.03012976 0.056866586 -0.05443845 -0.049202055 0.017480716
-0.03914191 -0.01562836 0.0131227225 -0.0017029047 -0.009071834 -0.027571157 -0.0063788667 0.014727294
-0.014002785 0.026398942 0.052265503 -0.04130909 -0.011340119 -0.0521798 0.04706628 -0.016014256
-0.060521178 0.037180483 -0.015418217 -0.058203615 -0.04295508 -0.016390078 0.0022587106 -0.017497957
0.045196824 -0.018340372 0.05324252 -0.024767034 -0.0012886077 -0.047418855 -0.05013022 0.038784347
-0.012703948 -0.03997378 0.047774687 -0.013674781 -0.04765808 -0.05235988 0.03830996 -0.028848015
-0.05104951 -0.015960298 -0.012550995 0.013755776 0.03003306 0.01712294 -0.040829286 -0.020618536
-0.050569423 -0.021142505 0.0060371757 0.044996254 -0.039295726 0.034111872 0.041005038 0.04884275
0.028102621 -0.04007508 -0.049128845 0.03483601 0.058542065 0.052442394 -0.027221866 0.046194285
-0.023897238 0.007330328 0.0052718967 0.050874703 -0.032815814 0.026738815 0.002180539 -0.0522002
-0.01887101 0.037637867 0.05801127 -0.037364125 -0.051940814 -0.056650452 0.0041025877 0.043158017
-0.006512232 0.0013595298 0.050549902 0.009449691 -0.04763943 0.039361008 0.045482658 0.05648593
-0.019475669 -0.040504113 0.056208394 -0.05971688 -0.052224815 0.0017889068 -0.02968233 -0.002620168
0.024695985 -0.029919252 -0.027477406 0.05141723 0.034037754 -0.048565194 -0.044559166 -0.027520783
0.057013147 -0.029619485 -0.0474763 -0.0058382377 0.030643918 -0.04538253 -0.01716248 0.031096756
0.060914695 -0.021522023 -0.027872086 -0.038650192 -0.01919911 0.03199753 -0.060191177 -0.012292676
0.032719567 -0.015739173 -0.05017975 0.022373363 0.026006743 -0.036890827 0.03370975 -0.02697254
0.009167463 0.051072054 0.007506281 0.017953537 -0.008036286 0.019098043 0.026201852 0.026016936
-0.04815437 -0.01448974 -0.013264857 -0.05606892 0.0053082183 -0.044189878 0.055728436 0.04543163
0.0038721114 -0.0051107705 -0.051764295 0.05488441 0.029092543 0.011750057 0.030925483 0.006269373
-0.016293406 -0.013992891 -0.04231509 0.0027819797 0.048588715 -0.0097467005 -0.021325387 0.0566236
-0.031675845 -0.000620313 -0.045459002 -0.05387207 0.020024344 -0.05787205 0.0065085366 0.045211628
0.0005427152 0.04141827 -0.053293712 0.06244473 -0.039422452 -0.042648673 0.03335105 0.050169326

fc4.bias f4 [16]
00000000: 7e68 313d 58dd 883c 6ef7 2fbd e05a a2bc
00000010: dacb 333d 1459 a03c e8c2 323c 6052 f83c
00000020: 76ca 693d 18ab 61bc b0ed 033d e289 193d
00000030: c0fa e3ba 1e44 71bd e822 54bc f61c 023d
0.043312542 0.016707107 -0.042960577 -0.019818723 0.04389558 0.019573726 0.010910727 0.030312717
0.057077847 -0.013773702 0.0322091 0.03748501 -0.0017393455 -0.058902852 -0.012947775 0.0317659
